model.pth (torch, 141323 bytes, 38 tensors)

encoder_layer.self_attn.in_proj_weight f4 [15, 5]
00000000: a390 1bbd 4789 d0be d462 d3be 4323 30bc
00000010: 02e5 96be 3745 f83e e4d2 ecbe 1d51 81be
00000020: e299 813e c696 0dbd 7b89 df3e 8212 123e
00000030: 9b58 48be 7338 2e3e 70a7 933e 815d 093f
00000040: d1d0 d33e a00a 22be a7d9 053f d031 f63e
00000050: 0948 d83e 8873 1e3e 8020 a43e 8218 a33e
00000060: 83b5 03be 5d25 a83e 2336 94be 42b0 35bd
00000070: e08b d53e 8e8c 9fbe cff2 0abf c5a7 4a3e
00000080: 286b 423e 3889 a9be 1611 4dbd ca20 72be
00000090: e722 debe b40f 96be e8cd 283e 613e e93e
000000a0: 84c6 0abf e323 8abe 78c8 30bd ff88 203e
000000b0: d3f0 a83d dcff cbbe 15a9 a7be f199 913e
000000c0: 0f00 a9bb 7a03 8a3e e40a 0ebe 8928 e43e
000000d0: 7908 863e b344 70be 48db 9dbe 1d3a 60be
000000e0: 6fe3 013f 5376 3d3e 09c9 36be 451e 90be
000000f0: 15f9 0ebd 894f 053f eaf3 d03e cb45 85be
00000100: b63b 06bf a483 a73e 48da cc3e 3cd7 22be
00000110: 96c5 9c3e 64ba b3be 5ebd 55be 9b4f 083f
00000120: 7ea1 d8be 8423 ed3e 4840 01bf
-0.037979733 -0.40729734 -0.41286337 -0.010750595 -0.29471594 0.48490307 -0.46254647 -0.25257197
0.25312716 -0.034567617 0.43659577 0.14264873 -0.1956505 0.17013721 0.28838682 0.536583
0.41370252 -0.15824366 0.52285236 0.4808488 0.42242458 0.15473759 0.32056046 0.31854635
-0.1286221 0.32841006 -0.28947553 -0.044357546 0.4170828 -0.31161922 -0.54276747 0.19790561
0.1898619 -0.33112502 -0.050065123 -0.2364532 -0.43386003 -0.29308856 0.16484797 0.45555404
-0.5420916 -0.26980504 -0.043159932 0.1567726 0.082490586 -0.39843643 -0.32746187 0.2843776
-0.0051574777 0.26955777 -0.13871342 0.44562176 0.2617834 -0.23463707 -0.3083136 -0.21897168
0.5073766 0.18502168 -0.17850126 -0.28148094 -0.034905512 0.52074486 0.40811092 -0.2602981
-0.5243486 0.3271762 0.40010285 -0.15902418 0.30619496 -0.35103142 -0.20873019 0.5324647
-0.4231071 0.4631616 -0.5048871

encoder_layer.self_attn.in_proj_bias f4 [15]
00000000: 0000 0000 0000 0000 0000 0000 0000 0000
00000010: 0000 0000 0000 0000 0000 0000 0000 0000
00000020: 0000 0000 0000 0000 0000 0000 0000 0000
00000030: 0000 0000 0000 0000 0000 0000
0.0 0.0 0.0 0.0 0.0 0.0 0.0 0.0
0.0 0.0 0.0 0.0 0.0 0.0 0.0

encoder_layer.self_attn.out_proj.weight f4 [5, 5]
00000000: 1ed1 963e 242f 033e b2f9 dbbe 48dd 443e
00000010: 3d98 59be 339e 88bd de67 a9be 0374 99be
00000020: d6dc 53be 1fe1 133e 9ac4 443e 200f babd
00000030: 84ad 45bd db1f 1bbe de39 c8be 8858 813d
00000040: cab1 d63e 64f4 40be 5ee0 90be 7c52 b0be
00000050: d2a6 003d d9ce 35be 77d8 893e 40ad ad3e
00000060: a2cb afbd
0.2945642 0.12810951 -0.4296394 0.19225037 -0.2124948 -0.06670799 -0.33087057 -0.29971322
-0.20689711 0.14441346 0.19215623 -0.09084916 -0.04826118 -0.1514887 -0.3910665 0.06315714
0.41932517 -0.18843228 -0.2829618 -0.3443793 0.031409092 -0.17754687 0.26922962 0.33921242
-0.08583762

encoder_layer.self_attn.out_proj.bias f4 [5]
00000000: 0000 0000 0000 0000 0000 0000 0000 0000
00000010: 0000 0000
0.0 0.0 0.0 0.0 0.0

encoder_layer.linear1.weight f4 [200, 5]
00000000: a1b4 ebbc 6d2f 703e a9fd f8bd 3b67 35be
00000010: 33ce 32be 8777 aabe ea28 d33d 86aa a53e
00000020: eacf debe 2f2b 3f3e 8f36 65bd a302 803d
00000030: 583a 8fbd 4119 8e3e e764 a8be e441 4c3d
00000040: d84d 373d 43b4 d53e 7e8e dabe 09a6 dabc
00000050: c689 573d 01ce 9c3d 85ae 52be 7f98 073c
00000060: 6429 d4bd e19a c8bd 82fc 6d3e e431 cdbe
00000070: 0c10 573e 966a 0ebe 4daa 64be fd7d 5dbc
00000080: 54ef 4dbe 0389 df3e 421d d73e 14a6 863e
00000090: c5ee 2f3d 9e78 f93d 3bfd 923e b435 aa3e
000000a0: 81ce d83e 79ad 6a3e 1256 b23e 8927 82be
000000b0: 0852 b5bd 6d62 6b3e fa91 57be ddf7 343d
000000c0: 1410 a13e 0a1e e03e da85 c3be 4885 1f3e
000000d0: 59d7 a83e 12df e23d 7d21 48be 08bd 753e
000000e0: 67ea 3abe 1a2b c83d 5b53 85be 484a 123e
000000f0: acbe b6be 50bf bc3e 289e e0be c718 103e
00000100: e09c cfbc d74d 443e 7917 a43d 96ab b4be
00000110: 148f aa3e 5876 3fbe 08ff c73e 83d8 8c3e
00000120: d4e9 b2bd bb3a 713e be87 e43e 02f1 113e
00000130: 6d66 ddbd 3d06 68bc 0f9b 913e b5f3 763e
00000140: 5c51 953c c747 afbe 19ae 9cbe 08e4 783e
00000150: 13c2 a0be 6156 2f3e ae19 ca3e e072 3e3e
00000160: 4cd6 973d 2d1b b43e edb6 c83e b61d e4bc
00000170: 84e6 143e 4c7e 223e 82a7 afbe 5295 b83e
00000180: 58a8 bcbe c7bb 1a3d a445 483e 1d1a 06be
00000190: feae 49be e281 5bbe 27e8 8dbe 0d9f bd3d
000001a0: 2de3 23be 7ced 40be f3ec 2ebe 8ed9 473e
000001b0: 5706 15bd 1aca 57be 71fe d9bd 3473 2b3e
000001c0: 7976 7e3e f000 dfbc 4bd8 43be 164e 85bc
000001d0: f904 9f3e e51c f13d e519 a03d 0da8 973e
000001e0: 22d7 3d3e f155 a53e 3866 40be 0d3e b3be
000001f0: ebc3 bc3d d3d5 893d f324 d9be a4a4 4cbe
00000200: afa4 db3e d448 de3e f11c 93be 6314 c5be
00000210: be65 02be 0967 b93e e695 d53e 67bb 1c3e
00000220: 37b4 023e a4b6 35be bbe2 85bd 5881 473e
00000230: 9c7e 34bd a67f 7a3e f260 ce3d 22af cebe
00000240: 1b42 ac3e 3bc9 98be 5385 913e c2c7 923e
00000250: 8511 52be 1f31 3ebe 8836 d5bc 2429 8b3e
00000260: 5342 943e 65f6 9abe 42ad d03d cf35 c8bb
00000270: 8a10 e4be d8be 87bc a111 693e 33fa 813d
00000280: de7a 99be 7b05 c4be 62d9 4c3d c4eb f5bd
00000290: 23e7 c6be a882 debe 6030 9c3e fd6c 073e
000002a0: 2298 873e 4c26 e33e 34cd eebb 24f8 14bd
000002b0: c972 ba3e 660d b9be 2bf9 66be 87ba 3dbd
000002c0: 4701 053e d121 4dbe 1fd0 9dbe 8355 aebe
000002d0: 48ea 97bd 71c9 c7bd 6aa8 b1be 4383 d93d
000002e0: b72e f93d ce08 c0be f7dc be3e 5e65 9bbe
000002f0: e7f9 72be e2f4 d93e 2c36 bd3e 9a7b 763d
00000300: 5c07 e23e 7083 90bd 6e75 c4be 3513 493e
00000310: a4ea af3e 91c0 913e 630b cdbe 610c 5c3e
00000320: 8871 d63e 0dbe be3d 11ef 773e 256e e0bd
00000330: 1071 31be 0c48 d43e 375c e83d 76fd 583e
00000340: 1131 103d b1ed 90be 75b5 c73c 97f4 713e
00000350: 9c95 403d 9890 e43e 1532 52bd b614 b6be
00000360: 0f42 db3e 0edd d9be 90ea 5d3e b2f1 603e
00000370: 6b4e bfbe 4cd7 43be 601c f7bc b6c0 ee3d
00000380: fe61 c5bc 6b3f b5be fc80 3bbe 7b27 273e
00000390: 3ba9 30be 08ed ad3d 9d83 af3e 315d 033e
000003a0: e978 d4be 15a3 883e b3ea 97bc 9b33 0d3c
000003b0: e3ab c9be 87f7 93be 8138 ad3e c994 0a3d
000003c0: 5163 abbe 7b6c 393d 2644 a6be 3dca 81bd
000003d0: dc5f 66be 34f4 e03e b894 613e 1e0a e53d
000003e0: 4049 b3bd de70 803e 159e d9be 8f21 c1be
000003f0: 313e 5f3e 2872 a73e 9600 dabe cbcf 2bbe
-0.028772654 0.23455591 -0.12157757 -0.1771516 -0.17461471 -0.33294317 0.10310538 0.32356662
-0.43518 0.18668817 -0.055960234 0.06250503 -0.0699355 0.27753642 -0.32889482 0.049867526
0.044751972 0.4173909 -0.42686838 -0.0266905 0.052621625 0.076564796 -0.20574386 0.008276104
-0.10359457 -0.09795166 0.23240855 -0.40077126 0.21002215 -0.13907847 -0.2233059 -0.0135188075
-0.20110828 0.4365922 0.4201451 0.26298583 0.042952318 0.12181209 0.28708825 0.33244097
0.4234505 0.22917737 0.3483129 -0.25420788 -0.08853537 0.22986765 -0.2105178 0.044181693
0.3145758 0.43772918 -0.38188058 0.15578187 0.32976797 0.110777035 -0.19544025 0.23997891
-0.1825348 0.09773846 -0.26040158 0.14286149 -0.35692346 0.3686471 -0.43870664 0.14071952
-0.025343359 0.19170319 0.080122896 -0.3528716 0.33312285 -0.18697488 0.3906176 0.27508935
-0.087360054 0.2355756 0.44634813 0.14252093 -0.10810552 -0.014161644 0.28438613 0.24116404
0.018227272 -0.3423445 -0.30601576 0.24305737 -0.31398067 0.17122795 0.39472717 0.18598509
0.07413921 0.35176983 0.3920206 -0.027846199 0.1454106 0.15868491 -0.34307486 0.36051422
-0.36847186 0.037776735 0.19557816 -0.13095899 -0.1969566 -0.21436265 -0.2771618 0.09258852
-0.1600463 -0.18840593 -0.17082576 0.19516584 -0.036383 -0.2107319 -0.10644234 0.16743165
0.24849881 -0.027222127 -0.19125478 -0.016272586 0.3105848 0.11773089 0.07817439 0.296204
0.18539098 0.3229213 -0.18788993 -0.35008278 0.09217056 0.06730237 -0.42411003 -0.1998468
0.4289908 0.43414938 -0.28733018 -0.38492116 -0.12734124 0.36211422 0.41715926 0.15305863
0.12764059 -0.17745453 -0.06537386 0.19482934 -0.044066057 0.24462757 0.100770846 -0.4036799
0.33644184 -0.29841027 0.2842203 0.28668028 -0.20514496 -0.18573426 -0.02602698 0.27179825
0.2895685 -0.3026611 0.10189296 -0.00610993 -0.44543868 -0.016570494 0.22760631 0.0634655
-0.29976553 -0.3828543 0.050012 -0.12007859 -0.38848218 -0.43459058 0.30505657 0.1322517
0.26483256 0.44365156 -0.0072876457 -0.036369458 0.364157 -0.36143035 -0.22555988 -0.046320464
0.12988769 -0.20032431 -0.30822846 -0.34049615 -0.074177325 -0.09755219 -0.34698802 0.10620739
0.12167113 -0.37506717 0.37277958 -0.30350775 -0.23728143 0.42569643 0.36955392 0.06017647
0.4414624 -0.0705632 -0.38370842 0.19636233 0.34358704 0.2846723 -0.4004775 0.21489097
0.41883492 0.09313593 0.2421229 -0.109585084 -0.17328286 0.41461217 0.113457136 0.21190438
0.035203043 -0.28306344 0.024378518 0.2362846 0.04701768 0.44641566 -0.051317293 -0.35562676
0.42823836 -0.42551464 0.2167151 0.219672 -0.37364516 -0.19125098 -0.030164897 0.116578504
-0.024094578 -0.35399947 -0.18310922 0.16323654 -0.17252056 0.08492476 0.342801 0.12828518
-0.41498497 0.26686922 -0.01854453 0.008618261 -0.39388952 -0.28899786 0.33832172 0.0338333
-0.3347421 0.04526947 -0.32473868 -0.06337402 -0.22497505 0.43936312 0.22029388 0.1118357
-0.08754206 0.2508611 -0.4250342 -0.37720916 0.21801068 0.32704282 -0.42578572 -0.16778485

encoder_layer.linear1.bias f4 [200]
00000000: dc95 403e d061 273e 68a9 88be 482b 113d
00000010: 46ea 8bbe 9c36 71be bc68 39be 8b04 eebd
00000020: 55d9 013d a2c6 91bd f3ca 93be 3f92 cabd
00000030: 22e5 1cbe a4cb babe e2b9 8cbe f3a8 d7be
00000040: f8d3 e33e 419b 913b 88bf 8d3e 4860 503e
00000050: be72 1abe f03c e8bd f7c7 583d 08a4 d0bd
00000060: eec8 b7be d192 60bd 29fb 3b3e 5ada 18bd
00000070: 96dc b63d ef2e 77bd d7ab 9c3e 5aea 90bd
00000080: b31a acbc d517 a33d 18d7 b33e be64 5a3e
00000090: 6fb1 6ebe 48dd 4bbe cf7c 72be 0d49 a43e
000000a0: 652e ba3e e9e8 9a3e 11a8 89bd 7487 cfbe
000000b0: 5976 c1be 9d1c 97be 5aa5 4c3e 9b4f 4ebe
000000c0: f305 873e e1a1 313e c716 103e aaa5 47be
000000d0: a1e8 c3bd 1094 91be f686 46be 16f3 e3be
000000e0: c418 393e 6093 a23d 99fc 61be 291f ae3e
000000f0: 1481 acbe 9476 54be 4fc1 b7be 35fa 2bbe
00000100: 9ce7 bc3d 2c0e 9a3e 9cf9 8bbe 3ca6 84be
00000110: 1874 81be e549 053d 5384 8d3b 50e9 4a3d
00000120: 1dbf fcbd 5c35 a8be f842 c5be 3dfd aa3e
00000130: 0c4c 94be f81e 4ebe acd2 7f3e 7ab1 c53e
00000140: 918a c0bd fcd3 81be fe44 723e fa82 a4be
00000150: da59 8b3e 4e42 9c3e 6939 0abe 3fff 64be
00000160: 9e6d e1bd 08c1 9a3e 6d93 c63e c060 8dbe
00000170: 6e11 39be 7ac6 643d a1a0 073e 2ab2 a33e
00000180: d4fc 303d ea68 953e 7a9d 9abe 9bb4 c03e
00000190: 000d 39bd 868f d83e b82f 2cbe 563a 32be
000001a0: 646d 8fbe e9ac f8bd d946 d1be a42c 9b3c
000001b0: 631f 973e 92d6 c23e 0d13 4f3e 31ee e13e
000001c0: a9a5 00be 82e9 3bbe 1b33 e03e 06fc 49be
000001d0: 8e7f d33e 94d6 e1be 6aaa 89be 92e9 823e
000001e0: 1f6a 91be 12fb 993e b073 36be 940b 25be
000001f0: 7478 903e 6222 c938 3a20 753d 69cf 383e
00000200: 039d cc3c 813d 93be f0e4 243d 1d48 81be
00000210: f0cc 5ebe 560f ce3e 96ee 453e e3f6 aa3e
00000220: b58d b53e 1bab d4be e065 a2be 5831 943e
00000230: c979 d83e 9f5c 903e 4910 963e eb11 31be
00000240: e65f 5c3e fbcc a13d db11 a53d 3e69 333e
00000250: 57b1 6f3e 8fae 813e 726a 353e 55bf 8f3e
00000260: f6e2 b83c 248c 71be dd0b 01be 693f 13be
00000270: 9740 df3e 6cd6 73be 7a12 d2be 1dbb dc3d
00000280: f693 87be 685f 80bd cb82 9ebe c0f8 4e3d
00000290: 438f bc3e f527 5fbe 7ce7 97bd dfd0 953d
000002a0: 5e71 6dbe c11d ad3e 4fd5 febd d11e af3e
000002b0: 94e2 db3d d7e0 77be 4e99 62be 34c0 8cbe
000002c0: 905d 723e 3cae b53e c10b 7cbc d70e b7bc
000002d0: 4bf2 b53e 6c74 613e 0c20 bfbd e1e7 283e
000002e0: f9c2 75be df0c a83e 906e bdbe 8730 97be
000002f0: fd79 4dbd ac01 073e 8d51 0c3e b89a 96be
00000300: 6e3a 00be 4f39 c73e cbf0 27be 8a38 e3bd
00000310: 763d 94be d4a1 953e ddd9 a0bc fd48 b03e
0.18807167 0.16345906 -0.26691747 0.035441667 -0.27327174 -0.23555988 -0.18106359 -0.1162196
0.031701405 -0.07117964 -0.28865775 -0.098911755 -0.15321782 -0.3648349 -0.27485567 -0.42121086
0.44497657 0.0044435565 0.2768519 0.20349228 -0.15082833 -0.11339748 0.052925076 -0.101875365
-0.35895485 -0.054827515 0.18357529 -0.03731761 0.08928792 -0.060347494 0.30599853 -0.07075949
-0.021008825 0.0796353 0.3512504 0.21327493 -0.23309873 -0.19908631 -0.23680423 0.32086983
0.3636352 0.3025582 -0.06721509 -0.4053303 -0.37785605 -0.29514018 0.19984952 -0.20147555
0.26371726 0.17346908 0.14071189 -0.1949679 -0.09565855 -0.28433275 -0.19387421 -0.44521397
0.18075854 0.07938266 -0.22069015 0.34008148 -0.3369223 -0.20748359 -0.3588967 -0.16794665
0.092238635 0.30088937 -0.27338874 -0.25908077 -0.25283885 0.032541174 0.004318753 0.04953891
-0.123411395 -0.3285321 -0.38527656 0.3339633 -0.2896427 -0.20129001 0.24982709 0.38611966
-0.094014294 -0.25357044 0.23659131 -0.32131177 0.2721699 0.30519336 -0.13498463 -0.22362994
-0.11007236 0.30225396 0.38784352 -0.27612877 -0.18073055 0.055853345 0.13244869 0.31971866
0.043209866 0.29181606 -0.3019827 0.3763779 -0.045178413 0.42297 -0.16815078 -0.17405066
-0.28013146 -0.12142355 -0.40874365 0.018942185 0.29516134 0.3805433 0.20222111 0.44127038
-0.12563194 -0.18350795 0.4378899 -0.19725046 0.41308254 -0.44109023 -0.26887828 0.25568825
-0.28401276 0.30074364 -0.17817569 -0.16117698 0.28216898 9.590831e-05 0.059845187 0.1804787
0.024977213 -0.2875786 0.040257394 -0.2525033 -0.21757865 0.40246075 0.19329295 0.33391485
0.35459676 -0.41536793 -0.3171835 0.28943896 0.42280415 0.28195664 0.293093 -0.17291991
0.21520957 0.07900425 0.08060046 0.17520615 0.23407494 0.2532849 0.17716387 0.28075662
0.02256916 -0.23588616 -0.12602182 -0.14379658 0.43603966 -0.23812264 -0.41029721 0.107778765
-0.26480073 -0.06268197 -0.30959162 0.050530195 0.3682805 -0.21792586 -0.07417199 0.073152296
-0.23187777 0.33811763 -0.12443029 0.342032 0.10736576 -0.24206863 -0.22128794 -0.2749039
0.23668504 0.35484493 -0.015383662 -0.022345943 0.35536417 0.22017068 -0.09332284 0.16494705
-0.24000157 0.3282232 -0.36998415 -0.2952921 -0.050165165 0.13184232 0.13702984 -0.29414916
-0.12522289 0.3891091 -0.16400449 -0.11094768 -0.2895314 0.29225028 -0.019635135 0.34430686

encoder_layer.linear2.weight f4 [5, 200]
00000000: 982b 4ebd 8fa2 89bd 0cc8 dbbc 00c4 efbc
00000010: e641 b0ba 9f5b e53c 5ccd 7c3d 965e 1ebd
00000020: afce b0bb 742a 86bd 4949 813c 3a4f 29bd
00000030: 6007 2abc 0299 643c 8b81 4abd 121b 903d
00000040: e942 f0bb a00e c53c 3314 f83c ea3e 823a
00000050: df31 003d 332a 6c3c 3e58 f63c 1a72 17bd
00000060: 97e7 853d 482e 94bc 4186 81bd a789 9e3c
00000070: c865 60bd f7f2 be3c 8e20 553d 578f 24bd
00000080: 4338 e0bc f518 8c3d 9cab 933c 2008 ebbc
00000090: 6e4a 47bc fc0f be3c b54e febc 73b0 22bb
000000a0: 72d4 c83c a611 b13c 513d 4e3d 6a33 8a3d
000000b0: 4e8c 313d 8edb 113d 12b9 14bc 848f 873d
000000c0: 3887 2abc 2836 ad3c f752 75bd 41a4 36bd
000000d0: b76e a1ba 8847 4e3d 9528 88bd 1fb7 3cbd
000000e0: 3815 3bbd 8e52 4e3d 474d 19bb 85a0 fa3c
000000f0: 63a8 033c 2b92 2dbb 955a 4b3c 5d8b 573b
00000100: 9735 36bd 6a43 643c 36aa e2bc a1af e13c
00000110: dbf5 3ebd ab81 8e3d 9a64 5bbd 8c10 0bbd
00000120: 82c6 9d3a 1872 42bc cf75 943c 6eed d63c
00000130: 6ba6 2cbb 3b41 aebc e517 413c 8165 7c3d
00000140: 4fc6 2ebd c7dd e2bc 1164 2b3d 7d62 5bbc
00000150: 2e59 8ebd 8e3a 1abd 7d48 6fbc fd62 0cbb
00000160: 4930 17bd c6e6 0cbd 6e89 d2bc 9307 013c
00000170: debe 433d 9058 4fbd c99e d43c 6536 18bc
00000180: 1d8f 74bd e453 84bd d66c 93ba 1b71 2abd
00000190: d5b4 64bd ca9e b8bc 5d86 e9bc b8bc ccbc
000001a0: b9e0 3c3d d027 61bd 05ac 67bc 1b73 4f3d
000001b0: 84e3 113d df66 7d3d d228 553d ad20 903d
000001c0: 712b 593d 1233 6e3d e12b 923b cf01 273d
000001d0: 8825 ec3c d58d 763d 8f8a 6d3d 9e81 873d
000001e0: 7ba0 963c 7022 96bb 8b48 2c3d c891 74bb
000001f0: a967 6ebd ee81 8e3d e399 a8bc d51a 0ebd
00000200: 161c 67bc 8ece ef3c b1aa 6abd b9b3 40bd
00000210: 7233 9fbc 6f45 53bc dd63 0c3d dc06 16bc
00000220: 21c0 99bc 5fc2 453c 4782 a0bc 1e79 223d
00000230: ae95 61bd 1dc7 42bd fa52 86bc 49cf 24bd
00000240: 4e79 ae3c c391 2dbd 50fb 0f3d 6ba1 87bc
00000250: 88d4 6e3d 3300 103d 15b5 ce3c c6d7 18bd
00000260: a187 babb 0568 b53b aa1f 83bd 800c cdbb
00000270: c232 45bd c34a e1bc dabd 0cbc dcf8 7f3d
00000280: ee64 8d3d 1016 a3bc 7e02 4dbc baf2 613d
00000290: 87ce bb3b 172c cbbb b6fc 2ebd 8a04 26bd
000002a0: 7f2b 6fbd 2afa 79bd 5883 653b d659 5cbc
000002b0: b167 6a3d 791a edbb e953 133d f49f 27bd
000002c0: 3e4c fbbc 194f 7c3a 0989 8dbc 512b 923b
000002d0: da31 8dbc 4234 4c3d d0e3 0ebd 4f81 d13c
000002e0: 0c2b 4d3b 756a 803b 3a67 453b ae91 f03c
000002f0: eb75 0d3d edf2 8d3d 4660 78bd 2442 7abd
00000300: 1d30 82bd edca 083d d7f8 0e3b 4b91 38bd
00000310: 153f e23c 92b4 b6ba 7977 10bd f879 4b3d
00000320: a017 66bd 9dc3 18bd 6433 dfbc a7e7 9bba
00000330: 5b18 13bd d432 3cbd aea5 873c 69d9 b43c
00000340: 6044 bbbc 2766 783c 0944 083d 277e 54bb
00000350: 39d5 2b3c ef9c 4e3d 52de 7d3d d0d3 023d
00000360: 89bf bd3c 0484 dcb9 31e5 2ebd 2b19 113c
00000370: 463f 32bd 7c9f 7f3c e99b 933c 1edc 883d
00000380: f998 22bb 982e 113c 521e 49bd 39c7 b43b
00000390: c87e f2bc d553 9dbc 3192 82bd 76ac e73c
000003a0: 38b4 0abb e9ed 31bc 3070 f13c 5f73 ddbb
000003b0: a518 22bd 4bae 443d 9249 c6bb 8e0f eeba
000003c0: 8e2e 6d3c daf1 2a3c 3755 5b3d 4049 6bbd
000003d0: 78f2 75bd b69f 81bc 13f5 38bc d0ce 813d
000003e0: 65d0 41bd b3d8 10bd d025 8cbd 89e1 3f3d
000003f0: 85f4 58bc c41a 413d 5262 da3c bbd3 32bd
-0.050334543 -0.06720459 -0.026828788 -0.029268265 -0.0013447374 0.02799779 0.061719283 -0.038664423
-0.0053957324 -0.06551066 0.015782015 -0.041335322 -0.010377735 0.0139524955 -0.049439948 0.07036413
-0.007332195 0.024054825 0.03028307 0.0009936963 0.03129756 0.014414358 0.030071374 -0.03697405
0.06538313 -0.018088475 -0.06324435 0.019352747 -0.054784566 0.023309214 0.052033 -0.040175762
-0.027370578 0.06840698 0.018026166 -0.028690398 -0.0121637415 0.023200981 -0.03104339 -0.002482441
0.024515364 0.02161486 0.050351445 0.06748088 0.043346696 0.035609774 -0.009077327 0.0661917
-0.010408215 0.021143988 -0.059893575 -0.04459024 -0.0012316321 0.050361186 -0.066483654 -0.046073075
-0.045674533 0.0503717 -0.0023392008 0.03059412 0.008035752 -0.0026484828 0.012411733 0.0032889463
-0.0444847 0.013932088 -0.027669054 0.027549567 -0.046621185 0.06958326 -0.053562738 -0.033951327
0.0012037309 -0.011868022 0.018122582 0.026236262 -0.002634431 -0.021271339 0.011785482 0.06162024
-0.04266959 -0.027693642 0.041843478 -0.013390181 -0.069506034 -0.0376535 -0.014604685 -0.0021421306
-0.036911283 -0.03439977 -0.025700297 0.007875341 0.047789447 -0.05062157 0.02595462 -0.009290312
-0.059706796 -0.06461313 -0.0011247646 -0.041611772 -0.055836517 -0.022536654 -0.028506452 -0.024992332
0.04611275 -0.05496961 -0.014140134 0.050646883 0.035617366 0.061865684 0.052040882 0.070374824
0.053019945 0.058154173 0.004460797 0.04077321 0.02882649 0.060193855 0.057993468 0.066165194
0.01838707 -0.004581742 0.04206137 -0.0037318338 -0.058204327 0.06958376 -0.020581191 -0.034693558
-0.014105817 0.029273298 -0.05729169 -0.047046397 -0.01943371 -0.012894972 0.034274925 -0.009156909
-0.018768372 0.012070267 -0.019593371 0.039666288 -0.055074386 -0.04755317 -0.016396988 -0.040236745
0.021298077 -0.042375337 0.03515178 -0.016556462 0.058308154 0.03515644 0.025232831 -0.037315153
-0.0056924378 0.0055360817 -0.06402524 -0.0062575936 -0.04814411 -0.02750147 -0.008590186 0.06249319
0.069040164 -0.019907981 -0.012512801 0.055163123 0.005731407 -0.0062003243 -0.042721473 -0.040531673
-0.05839109 -0.06102959 0.0035020914 -0.013449153 0.057227794 -0.007235822 0.035968695 -0.040924028
-0.030676004 0.00096248236 -0.017277258 0.00446073 -0.017235685 0.049854524 -0.034885228 0.025574354
0.0031306176 0.0039189407 0.0030121342 0.02936634 0.034536283 0.069311 -0.06063869 -0.061098233
-0.06356833 0.03339665 0.00218158 -0.045060437 0.02761797 -0.0013939312 -0.035270188 0.049676865
-0.056174874 -0.037295926 -0.027246185 -0.0011894599 -0.0359119 -0.04594691 0.016558494 0.022076325
-0.022859752 0.015161074 0.03326801 -0.0032423825 0.010487848 0.050442632 0.0619796 0.03194028
0.02316262 -0.0004206003 -0.042699043 0.008856098 -0.043517374 0.015601989 0.01801868 0.06682609
-0.0024810417 0.0088612065 -0.04910118 0.0055169133 -0.02960147 -0.019205013 -0.0637554 0.028280478
-0.0021164548 -0.010859945 0.02947244 -0.006758138 -0.039574284 0.04801778 -0.0060512507 -0.0018162595
0.0144764315 0.0104336385 0.053548064 -0.057442904 -0.06004569 -0.015823226 -0.011288899 0.063382745
-0.04731788 -0.03536291 -0.0684315 0.046845946 -0.013241892 0.047144666 0.02665821 -0.043658953

encoder_layer.linear2.bias f4 [5]
00000000: 23ea f43c 4a88 1dbd 6be8 783d 5ffe b13c
00000010: 5c52 66bd
0.029896801 -0.038460054 0.060768526 0.021727739 -0.056230888

encoder_layer.norm1.weight f4 [5]
00000000: 0000 803f 0000 803f 0000 803f 0000 803f
00000010: 0000 803f
1.0 1.0 1.0 1.0 1.0

encoder_layer.norm1.bias f4 [5]
00000000: 0000 0000 0000 0000 0000 0000 0000 0000
00000010: 0000 0000
0.0 0.0 0.0 0.0 0.0

encoder_layer.norm2.weight f4 [5]
00000000: 0000 803f 0000 803f 0000 803f 0000 803f
00000010: 0000 803f
1.0 1.0 1.0 1.0 1.0

encoder_layer.norm2.bias f4 [5]
00000000: 0000 0000 0000 0000 0000 0000 0000 0000
00000010: 0000 0000
0.0 0.0 0.0 0.0 0.0

transformer_encoder.layers.0.self_attn.in_proj_weight f4 [15, 5]
00000000: 47e4 663d 8be2 853d ab19 b6bf 8d73 f83e
00000010: d6f6 ce3d f16a 1fbd 38eb 90bd 2ab5 9abe
00000020: 17db 653f ea75 c93d b9cc 2e3b fe9d b93d
00000030: 55fd 243f 2f21 243f de04 603f 9675 b73d
00000040: 60c5 2fbf b220 3b3e 8103 463f 6619 aa3e
00000050: 96ae 6cbd 042f 4ebd b558 8e3f 067c 813d
00000060: ed8a 433f 05fa 0e40 dc96 2cc0 dfe4 583e
00000070: d6c9 6e3e f9ce 003e bb74 80c0 02a6 8340
00000080: dc48 ac3d d631 21be 6994 debe a7cd 9d3f
00000090: 2383 babf e980 05be ff62 04bd 0c23 f6bd
000000a0: 4cc4 79bf 4080 85bf 32ca 743f 0a04 093f
000000b0: 211d a93e 2c49 de3f efc5 87bf e5fa 7c3d
000000c0: 76c9 8f3e 1980 92bd 5401 0bbf a676 443f
000000d0: ad9a 903d 9c40 ca3d cc56 eb3d f784 39bf
000000e0: 18f4 563f 31d3 283e 3758 963d 0d50 633e
000000f0: 82b3 08bf 05cf 173f 2eda 4c3e c8d1 843d
00000100: 38e3 3f3e bf36 793f 0de1 8d3f 1242 f4be
00000110: 3d04 2abe 9cbf 81bc e413 6abf 0633 363f
00000120: 0707 3c3c 1fb4 d23e f61a 6b3e
0.056370046 0.0653735 -1.4226583 0.48525658 0.10105674 -0.038920347 -0.070761144 -0.30216342
0.8978743 0.098369434 0.0026672317 0.09063338 0.64449054 0.64113134 0.87507427 0.089579746
-0.68660545 0.18274191 0.77349097 0.33222502 -0.057783686 -0.050337806 1.1120821 0.06322484
0.7638386 2.23401 -2.6967077 0.21181057 0.23319182 0.12578954 -4.0142493 4.1140146
0.08412334 -0.15741667 -0.43472603 1.2328385 -1.457127 -0.13037457 -0.032320973 -0.120184034
-0.9756515 -1.0429764 0.95621026 0.5352179 0.33030036 1.736608 -1.060728 0.06176271
0.2808339 -0.07153339 -0.542989 0.76743543 0.07060752 0.098756045 0.114911646 -0.72468513
0.8396621 0.16486813 0.073410444 0.22198506 -0.5339891 0.5930026 0.20005104 0.06485325
0.18739021 0.9734916 1.1084305 -0.47706658 -0.1660318 -0.015838437 -0.914366 0.71171606
0.011476285 0.41153046 0.22959504

transformer_encoder.layers.0.self_attn.in_proj_bias f4 [15]
00000000: b1c0 923f bd4c bbbf 781f 11bf 9e3e 25bf
00000010: 17dc 6dbf a830 613a 664f 93bb 42f6 3a39
00000020: 990d 2ab9 2951 7a38 8c52 113f c3a3 513f
00000030: 8869 133f c372 983e 1e2b 233f
1.1465055 -1.4632794 -0.5668864 -0.6454867 -0.92913955 0.0008590319 -0.004495549 0.0001783008
-0.00016217529 5.968023e-05 0.5676658 0.81890506 0.575829 0.29775056 0.63737667

transformer_encoder.layers.0.self_attn.out_proj.weight f4 [5, 5]
00000000: e240 773f be12 9c3f 2b91 14bf ef89 e13e
00000010: 0f0f 65bf e5e3 1f3f 2a85 8a3f f7f3 34bf
00000020: 17d6 19bf cdbe 3abf 112b c03f 7a61 db3f
00000030: 1be6 52be a58e 2f3f ece9 20bf c051 0ebe
00000040: f077 f13e 18f9 4bbf acdd afbd 1872 043d
00000050: df14 a7be 3c1c c3be 7ff7 5d3f 49d9 fc3b
00000060: eb42 00be
0.9658338 1.219322 -0.5803401 0.44050547 -0.894761 0.62457114 1.0821888 -0.7068476
-0.600923 -0.7294739 1.5013143 1.7139122 -0.20595591 0.68577033 -0.62856936 -0.13898373
0.47161818 -0.7967696 -0.085872024 0.03233537 -0.3263311 -0.3810748 0.86705774 0.007716332
-0.12525527

transformer_encoder.layers.0.self_attn.out_proj.bias f4 [5]
00000000: 59dd bbbe 2477 3dbf 131b 34bf 32ba 153d
00000010: 44b2 6a3d
-0.36692312 -0.7400992 -0.7035381 0.036554523 0.057298914

transformer_encoder.layers.0.linear1.weight f4 [200, 5]
00000000: fe35 1ebe 9b52 e23e c4b5 98be 9501 49be
00000010: bf48 9cbd 290d c4be 0418 eb3e 7d7e c0bd
00000020: 25c6 6dbe 489f b73d 364d dbbd a037 22bd
00000030: c211 f9bd ae99 bc3e 1ad0 28be 57c5 9e3d
00000040: f119 c5bc bd06 2c3f 8bd2 29bf c6c9 9abc
00000050: 881a 03bd 2738 453e 0aab 05bf 5181 873d
00000060: b3eb b7bd 449e 48be 07cc cd3e 40f7 77be
00000070: de46 c73d 1d4f e1bd 972c acbd 1bb7 303e
00000080: f593 dcbd f999 9c3e 244a a03e 697f 593e
00000090: de3a b93e 1e74 093e 0b10 5bbd da0e 063f
000000a0: 744f 263f 3fbd 823e d728 773e c42b 15bf
000000b0: 23e6 7a3e ebfc b73e 09d7 ebbd 150b c03e
000000c0: 7fdb 3d3d 8342 9c3e c7ed 31bc 8eb0 8bbd
000000d0: 5db8 da3e c378 56bd 2f30 8dbe 61eb da3e
000000e0: 0efc 89be 2e97 4ebd d668 aebd 16ce 6ebd
000000f0: d932 79be d955 033f b5a7 c0be 6306 9d3c
00000100: eaad 11be 6794 75bd ac69 1d3e 849f 71be
00000110: 4d5d c13e 6afd 0ebe b20b 2d3f 4f3a 973e
00000120: 55b3 eabc b59b 443e 8331 bb3c d3cf 873e
00000130: 3156 44be 0aca bd3e 865c 7a3e f63c 2b3e
00000140: 75b3 043e a94d a53d 90f7 c1be 4875 29be
00000150: 04f3 22be d348 df3e 4bd2 9a3e bbbc 113f
00000160: 86c9 8abe ab14 c23e 18ee da3e 3e0b 063e
00000170: 297c 773e faee 3cbe 1621 09be 1480 253f
00000180: 57dd 75bd ebee 41be 08ba 9fbd 9dda 483c
00000190: 5342 85be 399a 39be 2018 9ebe 3ed3 103e
000001a0: 11ae 3fbe ad23 203e be18 6dbd b9f2 563e
000001b0: e5db 86be 50ff 9cbe f73d 86bd d8d5 f7bc
000001c0: 6f9f f83e 665b ecbd c2f4 f4bd fdaa f5bd
000001d0: c5c9 703e 1a1e f33e 94da 983d 9732 733e
000001e0: 672a c43e 406b 4b3e 324b f43d 9c0a 38bf
000001f0: b016 4c3e 0389 863e 9d8e 73be a0e0 223e
00000200: c076 883d f7e0 ca3e 6d1a 123e a084 673e
00000210: b3d4 90be d40c 2abe 316b 1e3f ccd0 513e
00000220: b8c2 aa3e 9ebb c3bd aec3 20be f219 71bd
00000230: 7515 1e3e 09e2 8c3d 7846 493e 2fa4 eebe
00000240: abb0 903e bdaa fabe 6c07 033e 951a 8c3e
00000250: 6aa7 5bbe 4e3c bbbc 20a1 333e 92ca dc3d
00000260: ffea 6e3e 96bb c9be a2b9 853e 2acd c83d
00000270: 4c6e b7be d5ae 6a3d 233d 503e 8ae8 04bd
00000280: 7029 d1be 9b72 a3be fb18 8b3e 461e afbe
00000290: df21 95be f3f0 42be 1605 9e3e 4e4a 953e
000002a0: 67c7 be3d 0c7b e93e c144 56bb 23c6 d3bd
000002b0: 8622 1f3f ebb4 08bf f386 11be c5c1 9b3d
000002c0: 5149 503e 4fd9 11bf 19b8 aebe a5f0 88be
000002d0: a62e 143e d8c8 6f3d c211 72be dfc6 6d3d
000002e0: 86fd 90be cb2e 0d3d 4dec f63d fbb5 07bf
000002f0: 5896 a5be 7bd0 233f 5c81 e53e f467 0e3d
00000300: f4c3 f33e 4239 6bbe b28c aabe 3585 9d3e
00000310: b57b 5b3e 2820 e33e 93ca 00bf 8c28 ce3e
00000320: e636 903e be55 423e 2df9 803d c76b b6bd
00000330: 27b1 6b3d ff80 853e 30f2 183e 8d6c c33e
00000340: eae4 86bd 4c8c 15be 3dd6 253e e1c3 703e
00000350: f880 2b3e 8f5e d53e 3e27 34bd 5471 18be
00000360: cc72 063f bffc e4be d0c7 553e aedb 81bd
00000370: 9f4d 96be d798 81be 1a07 78be 6893 403e
00000380: 732f 1bbd 548a 17bf cca4 a03d 7cc2 513e
00000390: 0cc0 bcbd af3f 44bd 0dd6 853e 92b6 ae3e
000003a0: a9f6 debe 24c7 1a3e 6995 3a3d f4fa 17be
000003b0: 5188 863c fed1 bdbe cc99 9a3e 1e13 c8bd
000003c0: 9549 66be 77f1 3c3e 01cf aebe efa0 a7be
000003d0: 63e6 f1bd 949d 053f c8a0 433e 8466 b6bd
000003e0: 9c67 d33d b49b c83d f60d 77be 6276 09be
000003f0: 970c 5cbe b7b7 0e3e 7b64 16be 25a0 ab3d
-0.15450284 0.44203648 -0.29826176 -0.1962951 -0.07631063 -0.3829129 0.4591676 -0.09399126
-0.23220117 0.08965927 -0.10708086 -0.03960383 -0.1216159 0.36835998 -0.16485634 0.07752483
-0.024060221 0.6719778 -0.6633689 -0.018895041 -0.032007724 0.19259702 -0.5221411 0.06616462
-0.08980503 -0.19591624 0.40194723 -0.24215412 0.09730314 -0.11001418 -0.08406942 0.17257349
-0.10770408 0.30586222 0.31306565 0.2124001 0.36177725 0.13423201 -0.053482097 0.5236641
0.64964986 0.25535008 0.24136673 -0.58269906 0.24501853 0.3593515 -0.11515624 0.37508455
0.046351906 0.30519494 -0.010859913 -0.068207845 0.42718783 -0.05236126 -0.27575824 0.42757705
-0.26950115 -0.050437145 -0.085160896 -0.058302008 -0.24335803 0.5130287 -0.3762795 0.019168084
-0.14226499 -0.05995598 0.15372342 -0.23596007 0.37766495 -0.13963857 0.6759597 0.29536673
-0.028649965 0.19200023 0.022850757 0.26525745 -0.19173504 0.37068206 0.24449357 0.16722474
0.12959082 0.08071453 -0.37884188 -0.16548645 -0.15913016 0.43610248 0.30238566 0.56928605
-0.27106875 0.37906393 0.42759776 0.13090226 0.24168457 -0.18450537 -0.13391528 0.64648557
-0.06002554 -0.18938796 -0.077991545 0.012259153 -0.26027164 -0.18125238 -0.3087778 0.14143082
-0.18718745 0.15638609 -0.057884924 0.20991029 -0.2633964 -0.30663538 -0.065547876 -0.030253336
0.48559138 -0.1154087 -0.11960746 -0.11995504 0.23514469 0.47483903 0.074635655 0.23749767
0.383136 0.19865131 0.11928405 -0.7189119 0.1993053 0.26276407 -0.23784871 0.15906
0.06663275 0.3962476 0.14267893 0.22609186 -0.28287277 -0.16606456 0.6188231 0.20489806
0.33351684 -0.095572695 -0.15699646 -0.058862634 0.15437873 0.0687905 0.19655788 -0.46609637
0.28259787 -0.48958388 0.127958 0.2736403 -0.21450582 -0.022855904 0.17541933 0.10780825
0.23331831 -0.3940093 0.2611819 0.09804757 -0.35826337 0.05729564 0.20335822 -0.03244833
-0.40851927 -0.31923375 0.27167496 -0.34202784 -0.29127404 -0.19037227 0.30863255 0.29158252
0.09315377 0.4560169 -0.003269479 -0.10340526 0.62162054 -0.5340106 -0.14211635 0.07605318
0.20340468 -0.5697221 -0.3412483 -0.26746097 0.1447092 0.05854115 -0.23639587 0.058050986
-0.28318423 0.034468453 0.120567895 -0.53012055 -0.32341266 0.6398999 0.44825256 0.034767106
0.47610438 -0.22971061 -0.33310467 0.3076569 0.21433909 0.4436047 -0.50309104 0.4026531
0.28166884 0.1897802 0.062975265 -0.08907276 0.057541993 0.2607498 0.14936137 0.38168755
-0.06586631 -0.146043 0.16195007 0.23512222 0.16748416 0.41673705 -0.043982737 -0.14886981
0.52518916 -0.4472408 0.20877004 -0.06340729 -0.29356095 -0.2531192 -0.24221459 0.18806231
-0.037887048 -0.59195447 0.078439325 0.20484346 -0.092163175 -0.047912296 0.2613987 0.34123665
-0.43547562 0.15115029 0.045552645 -0.14841825 0.016422423 -0.37074274 0.30195463 -0.09769271
-0.22489007 0.18451487 -0.34142306 -0.3273997 -0.11811521 0.5219357 0.19104302 -0.08906272
0.10322496 0.09795323 -0.2412642 -0.13424066 -0.21489178 0.13937269 -0.14686768 0.083801545

transformer_encoder.layers.0.linear1.bias f4 [200]
00000000: 3936 05bc 4c87 443e 5969 9cbe a5c7 fcbe
00000010: ef4c 83be d4db b5be e87d d5be 3d72 43be
00000020: f576 87bd 50a6 5fbe d39c e8be f36b 82be
00000030: 7e1b aabe 6b33 29bf 0e1a b4bd 7d15 eabe
00000040: 74f7 9e3d b94b 123e be20 e6bd e866 d1bc
00000050: ca86 6abe 5f9e bbbe 207a cfbd d57d b8be
00000060: 5de0 57be 7818 90be a042 8bbe 32bd 9f3d
00000070: 0cd1 333e 7095 78be 2592 413e 7fc3 f7be
00000080: ff28 35be 7dab 16be c5c7 07bd 563e a63d
00000090: 6cad 0cbf 3431 71be 11ea e2be 3184 4a3e
000000a0: 9972 8f3e 14fb 18be 65b5 ccbe 6bb3 c4be
000000b0: 57c0 07bf bc47 e6be 452a e7bd d23c 0dbf
000000c0: c11e c73b 39ee 4c3e 05b1 62be 8990 80be
000000d0: 02ac e8bd 1b35 21bf c9d7 72be 5415 f7be
000000e0: c29f c03d cea0 b5bd b87e cbbe c46e b2bc
000000f0: 22c7 dabe 3092 b4be a421 dcbe 72a3 aabe
00000100: 9c1d 8f3d fdd9 483e 354c 0abf fba4 f2be
00000110: 1967 d0be 0a02 a8be 156a b2bd 6570 9bbe
00000120: 1e83 fabd 3684 14bf 4b79 85bc 3f87 cfbd
00000130: 8c34 123e 45df b6be 8cfd 1f3e 35d0 b73e
00000140: 416a ccbe 3e88 93be 86e1 30be ded5 02bf
00000150: 4655 e53d d259 8abe b6b2 cebe cb53 38bf
00000160: 366b c0be a4a4 423e cee7 33bc c1ae 28bf
00000170: abde f3be a564 77be 9c0f 17be 106f 283e
00000180: 1d18 1fbe cf0e 713c 853b e7be 09d8 29be
00000190: 1cae 9bbe 43ae 883e bb9f 9ebe d9b1 aabe
000001a0: 2a41 fabe 1e93 3dbe b81f bcbe 5a4a 6cbe
000001b0: 49e5 a9bd 054f d3bd a3b2 673d 0cb3 5bbd
000001c0: 208b ed3d d63d 80be 6b21 cd3e eca7 383e
000001d0: 9f1d cf3c 7ff0 16bf 77ee fcbe be15 a6bc
000001e0: e0ac 1abf ac5a 863c c0f6 d5be c8c2 41bd
000001f0: d620 8a3a 25f7 4bbe 3d9e 813d 1808 b4bd
00000200: 678b 4abe 50f5 04bf edf1 debc a414 f9be
00000210: cfe1 ebbe 2119 513e 01ff 6f3e 3133 4d3d
00000220: 7843 823e e66a 2abf 5380 1dbe 75d6 0c3d
00000230: 9d23 773d 3c98 1c3e 1886 b13d 2c2a 95be
00000240: 727f b1bc 18a7 efbd a52d 1dbd 8330 9b3d
00000250: effd 73be 287c a1bd 8f6a d2bd cef1 803e
00000260: ca66 13be 2a38 e0be 08a8 a5be 1900 d5be
00000270: fbf2 b73d 5d7a f1be 7f96 51bf c550 45be
00000280: 7233 29bf f235 93be cc83 e7be bc02 353e
00000290: f6fb 213e 6d4b b6be daa6 81be 6739 aebe
000002a0: 850c 05bf d2b5 613e 1457 81be e1ca 49bc
000002b0: c750 aa3d 0011 14bf 0ad3 37be 0165 dabe
000002c0: 6239 953e 2deb cd3d 6e5a 8ebe 492d 4d3e
000002d0: 9c6f 2f3d c9df 533e 4454 aabe 5dae 2f3d
000002e0: 6785 2fbe 7ba4 c03c df83 06bf f53f 67be
000002f0: 33c9 4dbe e453 093d 2114 7bbe d4d1 04bf
00000300: 1fc1 30be 3d2a ed3d 363b 10bf bf42 21bf
00000310: ff22 6dbe 4cce 953e 0293 213d 3dc3 46bd
-0.0081306035 0.19192237 -0.30549124 -0.49371067 -0.25644633 -0.35519278 -0.4169762 -0.19086547
-0.06614486 -0.21840787 -0.45432147 -0.25472984 -0.332241 -0.6609408 -0.08794032 -0.4571952
0.07762042 0.14286698 -0.11236714 -0.025561765 -0.2290298 -0.36644265 -0.10130715 -0.36033502
-0.21081682 -0.28143668 -0.27199268 0.07799758 0.17560214 -0.24275756 0.18903406 -0.4839134
-0.1769142 -0.14713855 -0.0331495 0.081173584 -0.5495212 -0.23553926 -0.44319203 0.1977699
0.2801712 -0.14939529 -0.39982143 -0.38418135 -0.5302786 -0.44976604 -0.11287359 -0.5517093
0.006076664 0.2001275 -0.2213784 -0.25110272 -0.11360933 -0.6297166 -0.23715128 -0.4825846
0.094054714 -0.08868562 -0.39745116 -0.021781333 -0.4273005 -0.35267782 -0.42994416 -0.33327824
0.069880694 0.19614406 -0.5402253 -0.47391495 -0.40703657 -0.32814056 -0.0871164 -0.30359188
-0.1223204 -0.5801424 -0.016293189 -0.10133218 0.14277858 -0.35717216 0.15624064 0.35901037
-0.39924815 -0.28814882 -0.1727353 -0.51107585 0.11197905 -0.27021652 -0.4037072 -0.7200286
-0.37581795 0.19008118 -0.0109805595 -0.65891653 -0.4763082 -0.24159487 -0.14752048 0.16448617
-0.15536542 0.014713003 -0.45162597 -0.16586317 -0.30406272 0.2669545 -0.3098124 -0.33338812
-0.4887784 -0.18513152 -0.3674295 -0.23075238 -0.08295686 -0.10317806 0.056566846 -0.05363755
0.115988016 -0.25047177 0.40064558 0.18032807 0.02528268 -0.5896072 -0.49400684 -0.02027404
-0.60420036 0.016400658 -0.41789818 -0.0473049 0.001053835 -0.19918497 0.0632901 -0.08790606
-0.1977974 -0.5193682 -0.027214969 -0.4864856 -0.46070716 0.20419742 0.2343712 0.050097648
0.254421 -0.66569364 -0.15380983 0.03438421 0.060336698 0.15292448 0.086681545 -0.29133737
-0.021667216 -0.117017925 -0.03837361 0.07577612 -0.23827337 -0.07885009 -0.10274231 0.25184482
-0.1439468 -0.4379285 -0.3235476 -0.41601637 0.08981892 -0.47163668 -0.81870264 -0.19269092
-0.66094124 -0.28752095 -0.4521774 0.17676824 0.15818772 -0.3560442 -0.2532261 -0.3402817
-0.5197223 0.22042015 -0.25261748 -0.0123164365 0.08316188 -0.5783844 -0.17951599 -0.42655185
0.29145342 0.10054622 -0.27803367 0.20036806 0.04283105 0.20690836 -0.33267415 0.042890895
-0.17140733 0.02351593 -0.5254497 -0.22582991 -0.20096283 0.03352727 -0.24519397 -0.5188267
-0.1726117 0.11580322 -0.5634035 -0.6299247 -0.23157881 0.29258955 0.03944684 -0.048526037

transformer_encoder.layers.0.linear2.weight f4 [5, 200]
00000000: 4cb8 4c3d 1bc6 9ebd ac8b 933b 70e2 e13e
00000010: 6bb0 3cbe 89f0 24bd b0d0 7a3e 64fb 6fbe
00000020: e9c1 ab3e ee8e 00bd 2ea1 333b 62c7 cebe
00000030: 88ef cdbd fb88 5c3d 6b45 82be 5d77 9ebe
00000040: 4810 8dbd a674 6f3e d098 d03d fd21 7ebe
00000050: c234 c13c 09c9 083d 621f e43d ad62 2dbf
00000060: 9326 fa3e f7f0 0a3d 5d8a edbd 1a3f 8ebc
00000070: 7ec8 633e 0bac ceba 232a 283e 8447 e7be
00000080: 92ef b43d 11bd 4f3d d533 763e f670 5fb9
00000090: 0e52 2c3e a31b f0bd e213 81bd d7e8 473e
000000a0: 0569 01b9 18d0 bbbb 7985 86bc c4a9 3cbd
000000b0: 1a8e 843e 8253 f73d d1ed 99be 718f 81bc
000000c0: 230a 593c 1734 44be 7fc1 ec3c a435 dfbe
000000d0: 5419 963d 9c69 053f 4c16 a33e c778 a53d
000000e0: cc86 8bbc 8e89 723d 9ec8 443d 9b3b 04bd
000000f0: f5a8 b3bd 0c59 cebe 43a1 3abd 72c6 2c3d
00000100: ec22 aabd 43bf 4a3e cf00 adbd c566 253f
00000110: 1256 00bf fcf4 43be e626 a8be c732 d4be
00000120: ae85 07bc 03c3 bebd 8bb7 27bd 0cb5 d43c
00000130: c94b 663e db26 95bd 9439 533e 6dd8 94bd
00000140: d70d 7fbe 57a8 d6bc 977c 10be 0faa 8a3b
00000150: 1f86 28bd fef2 a9bd 7472 2abd dc1b 803f
00000160: 1d00 aebe 213c 9e3d 1a1b 0a3e 27b3 d23d
00000170: 0f15 7abc 79a5 cebd 3c58 f5bd 4aad 503e
00000180: 5796 0ebd 9f3d 663d bea2 19bd 1c31 343d
00000190: 146b 993c 4710 acbc df88 e2be f277 f93c
000001a0: 0d9a 63bd 9098 5e3d 6713 17be 57df 48be
000001b0: 0741 b13d 33e2 abbd a66f 9dbb 9423 01ba
000001c0: ae94 6cbd ef18 cf3d b466 ce3c cc8f 1c3c
000001d0: cb11 34bd 229b debe 8e3e d83c 487f 33bd
000001e0: aa45 a53d 79c5 bebc 4ac6 873c 6523 89be
000001f0: 2a2b 05be acea d53c c88e 95be 3a3d 8c3d
00000200: 7b1a 0b3c 06b4 2abe 35bf 263e 2ca7 e8bd
00000210: eb7c 3f3d 91a2 6dbe 67ff 09bd 36f2 29bd
00000220: aede b7bd 111a 783f 8ab4 eb3c 7a94 3a3d
00000230: 93dc a5bd ca10 5e3e effb 993d 8b17 18be
00000240: 1682 09bd f596 1fbe 0fd9 a33e fa38 80bd
00000250: 7639 bb3c 1591 3a3d 92a5 f4bd 836b b2bd
00000260: 765d 843d 6906 503e 86b3 04be 7998 cd3d
00000270: decc 32bd da7d 13bc b8a2 c7bd d04d 2fbe
00000280: 0662 223e dcae b83d 29c7 e7be 2648 743e
00000290: da7c cbbc cfc1 5cbe 47d7 253e ee7d 09be
000002a0: a135 a03d 6894 07be aa8f 13bd 3b4b 0d3e
000002b0: 2b06 68be 1418 6c3e 7701 b6bd e531 a93c
000002c0: 27e6 cdbc 0ac0 37bd 64f1 843e 601a 71bc
000002d0: 0fa3 d4bd ace8 39be fc73 8dbe 96d9 cfbc
000002e0: bcf8 a4ba 3ad7 27be 615e 13bf 4c5f d2be
000002f0: 1510 833a 278d 51bd 671b 983d 5c55 6d3b
00000300: 6220 d13c 19be 86bd 3841 a0be 9f3e 383f
00000310: 8dfa 97be 7927 eabd bb95 c6bd 83e2 a1bd
00000320: 8d0f 68be 0ce4 27be dcfa 8ebc a5e3 183d
00000330: e8fd bcbe cd17 4abe 1f64 033e 789b edbe
00000340: e1d5 a33e 9ab0 293e 43c2 083d 263d acbd
00000350: b9ea 99be 6cd0 b33e a917 7abd cf93 8b3d
00000360: 6b43 11bd 5634 a7bd 4064 2c3e fb2a 423d
00000370: 8bfd a6bc b6b8 cd3d 85c3 b73b 9876 4cbe
00000380: 4efa cc3e d6d2 023e ff14 62be 87b5 bdbd
00000390: 85df 9bbd 6fd2 00be 201c a5bd bc0f 523d
000003a0: 1106 9cbb 0328 df3d 7836 8e3d c540 96bd
000003b0: 3e8b 973e b8f3 93be e80a 813d 95f2 b3bd
000003c0: e55b 5a3c 3c61 a43c 8dbc bc3d 352d 15be
000003d0: d7e2 a3be ab96 53bd 3f17 90be dfa5 f53d
000003e0: 5f8b 15be ca1d c03c 1b3a c6bc 3c25 e1be
000003f0: 1fd6 493e c695 6d3e 146d d83e 4cfc 2ebe
0.049980447 -0.07752629 0.004502734 0.4411807 -0.18426673 -0.040268455 0.2449367 -0.23435742
0.3354638 -0.03138631 0.0027409303 -0.40386492 -0.100554526 0.053841572 -0.25443587 -0.30950442
-0.06887871 0.23384342 0.10185397 -0.24817653 0.023584727 0.033394847 0.11138798 -0.6772869
0.48857555 0.03392121 -0.11598656 -0.017364074 0.2224445 -0.0015767826 0.16422324 -0.4517175
0.08834757 0.050717417 0.2404321 -0.00021309018 0.16828176 -0.11724021 -0.063026205 0.19522415
-0.00012341522 -0.005731594 -0.016421067 -0.04606034 0.25889665 0.12076475 -0.30064252 -0.015815469
0.013247046 -0.19160496 0.02890086 -0.43595612 0.0732905 0.5211427 0.3185295 0.08079677
-0.01703205 0.059213214 0.048042886 -0.032283407 -0.0877246 -0.40302312 -0.045563947 0.04218144
-0.08307442 0.19799523 -0.0844742 0.6460994 -0.5013133 -0.19136423 -0.32842177 -0.4144499
-0.008271618 -0.09314539 -0.040946525 0.025965236 0.22489847 -0.07282802 0.20627433 -0.072678424
-0.24907623 -0.026203318 -0.14110027 0.0042316983 -0.041143533 -0.082983 -0.041613057 1.0008502
-0.3398446 0.077263124 0.13486901 0.10288077 -0.01526381 -0.10090155 -0.1197972 0.20378605
-0.034811344 0.05621111 -0.03750872 0.043992147 0.018727817 -0.021003855 -0.4424505 0.030452702
-0.055566836 0.054344714 -0.14753495 -0.19616447 0.08654981 -0.083927535 -0.0048045693 -0.0004926261
-0.05775898 0.101121776 0.025195457 0.009555768 -0.04396228 -0.43477732 0.026397016 -0.043822557
0.08069928 -0.023287522 0.016574044 -0.26784816 -0.13004747 0.026112877 -0.29210496 0.068476155
0.0084902 -0.16670236 0.16283877 -0.113600105 0.04674999 -0.23206545 -0.033690836 -0.041490756
-0.0897802 0.96914774 0.028772611 0.045551755 -0.08098712 0.21686092 0.07518756 -0.14852731
-0.033571325 -0.1558493 0.3200154 -0.062608674 0.022854548 0.045548517 -0.119456425 -0.087119125
0.06463139 0.20314945 -0.12959108 0.100388475 -0.043652408 -0.009002173 -0.09747833 -0.17119527
0.15857705 0.09017727 -0.45269135 0.23855647 -0.024839807 -0.21558307 0.16195403 -0.13426945
0.07822729 -0.13240206 -0.03602568 0.1379823 -0.22658603 0.2305606 -0.08886998 0.020653674
-0.02513416 -0.044860877 0.25965416 -0.014715761 -0.103826635 -0.18155164 -0.27627552 -0.025372308
-0.0012586336 -0.16390696 -0.57565886 -0.4108833 0.00099993 -0.051160004 0.074271016 0.0036214208
0.025528137 -0.06579227 -0.31299758 0.7197055 -0.29683343 -0.1143331 -0.096965276 -0.07904532
-0.22662182 -0.16395587 -0.017453603 0.037326474 -0.36912465 -0.19735642 0.12831162 -0.46407676
0.31999114 0.16571274 0.033388387 -0.08410101 -0.30061892 0.3511995 -0.06105772 0.068153016
-0.035464685 -0.08164279 0.16835117 0.04740427 -0.02038457 0.100449964 0.0056080245 -0.19967115
0.40034717 0.1277574 -0.22078322 -0.09263139 -0.07610992 -0.12580274 -0.08062005 0.051284537
-0.0047614654 0.108963035 0.06943983 -0.073365726 0.2959842 -0.2889688 0.06300908 -0.08786503
0.013327573 0.020065896 0.09215651 -0.14568026 -0.32009003 -0.05165736 -0.28142735 0.11994528
-0.14603947 0.023451705 -0.024197629 -0.4397372 0.19710587 0.23201665 0.4227072 -0.17088431

transformer_encoder.layers.0.linear2.bias f4 [5]
00000000: 2d2f 11bd 3ce4 d3bc d4d7 283c cdec ef3c
00000010: 7ad3 11bd
-0.03544538 -0.025865667 0.010305364 0.02928772 -0.03560207

transformer_encoder.layers.0.norm1.weight f4 [5]
00000000: b626 013f 52e5 1b3f 2063 d83e 2f47 823f
00000010: 9d32 af3f
0.50449693 0.6089679 0.42263126 1.0177974 1.3687321

transformer_encoder.layers.0.norm1.bias f4 [5]
00000000: a32c 4ebe 7a06 2dbe d51d 333e e51c 59be
00000010: 7d01 473e
-0.20134215 -0.16897002 0.17491849 -0.21202429 0.19434161

transformer_encoder.layers.0.norm2.weight f4 [5]
00000000: f0eb 6c3f 5fe1 643f 6e1c b83e 2906 983f
00000010: 1d07 7c3f
0.9254751 0.8940639 0.3595919 1.187688 0.98448354

transformer_encoder.layers.0.norm2.bias f4 [5]
00000000: cb65 113d e5b6 47be 506a 313f 8db3 9dbe
00000010: 01c0 4bbd
0.035497468 -0.19503362 0.69302845 -0.3080105 -0.049743656

transformer_encoder.layers.1.self_attn.in_proj_weight f4 [15, 5]
00000000: 364c e3be 9143 383d 7e58 3abf f0bd 9b3e
00000010: 6aaa 83be ba2d 0cbe 3fb9 89be 0d27 5bbe
00000020: 9ad9 163f fede 5dbe 75b0 6a3e 88f6 643e
00000030: 5a5d 8cbd 1304 0b3e c8d3 af3d 2890 903e
00000040: 8bc3 c33e 550e 5e3d 6860 f33e 6141 b93e
00000050: 3b05 df3e f546 72be 10b4 013f 6598 0c3f
00000060: 68b6 32bd fac7 833e 100c 1c3e eb0f 203f
00000070: 60d7 ad3e 21ce 72bf 9a17 2cbe 9460 183e
00000080: 02df 463d 2ce8 003d 3fd2 10bf 84ea b9be
00000090: 51e5 32be b937 17be e9f4 8d3e e41a 643e
000000a0: eb14 4abe a2b4 02be 0e97 333d dd53 2ebd
000000b0: 23f2 4d3d d599 64bf d651 6ebe 8e8f f9bd
000000c0: 4c02 cb3e 6c13 383e 9aa0 8dbe 519c b33e
000000d0: 5444 923e 6cbd 3abd 9c4c 36be b302 12be
000000e0: 5592 c73e ed98 323e d98d acbd c47e 093d
000000f0: ef17 4b3c 6b8d b93e a357 033f 4dc1 42be
00000100: 8af0 bfbe 90ec 593e effb 433e 175e 623d
00000110: 5c5c 1f3e c5c2 16be 3fd5 abbe b1be 9a3e
00000120: aab5 19be 15b0 8f3e 590a 6abe
-0.44394082 0.04498631 -0.7279128 0.30418348 -0.25715953 -0.13689318 -0.26899144 -0.21401615
0.58925784 -0.21667096 0.22918876 0.22359669 -0.06853743 0.13575773 0.08585316 0.28234982
0.38235125 0.054212887 0.4753449 0.36182693 0.43558678 -0.2365988 0.5066538 0.54920036
-0.043630987 0.25738508 0.15238976 0.6252429 0.3395338 -0.9484578 -0.16805878 0.14880592
0.04855252 0.031471416 -0.5657081 -0.36311734 -0.1747029 -0.1476735 0.27725914 0.22275883
-0.19734542 -0.12764218 0.04384523 -0.042560447 0.050279748 -0.8929723 -0.23273405 -0.12185584
0.3965019 0.17976159 -0.27661592 0.35080197 0.28567755 -0.045590803 -0.17802662 -0.14258842
0.3897883 0.17441149 -0.08425493 0.03356816 0.012395843 0.36240706 0.513056 -0.19019051
-0.37488204 0.21281648 0.19139074 0.055265512 0.15562576 -0.14722736 -0.3356113 0.3022361
-0.15010706 0.28064027 -0.2285551

transformer_encoder.layers.1.self_attn.in_proj_bias f4 [15]
00000000: b0ad 803e 5503 d63d 2aee 153e b204 483e
00000010: 922e 013e 4011 5537 3507 1139 bfac 7e38
00000020: 24f4 80b8 782d 7538 4bd4 ee3d cd5c f93d
00000030: 0aa7 5d3d 1a70 f13d 807f bb3d
0.25132513 0.10449854 0.14641634 0.19533041 0.12615421 1.2699806e-05 0.00013830962 6.07192e-05
-6.14899e-05 5.8454898e-05 0.116615854 0.121759035 0.05411438 0.1178896 0.09155178

transformer_encoder.layers.1.self_attn.out_proj.weight f4 [5, 5]
00000000: 3ae3 00bb 8040 2fbc 2b1c 34be 6e59 203e
00000010: a4ff 4ebe 7440 adbd 9e20 50be bd85 86bd
00000020: 5da7 93bd 532d 973c ef28 473e 7bc5 62bd
00000030: 1364 babd a0bc ac3c 8893 19be b571 8b3d
00000040: 7938 5d3e a700 3fbd da87 babc 4a18 cbbd
00000050: fd6f 1a3c 3db2 9fbd 90bc 3b3c 2144 e43d
00000060: 8c67 cc3c
-0.0019666688 -0.01069653 -0.1758887 0.15659115 -0.20214707 -0.08459559 -0.20324942 -0.06568477
-0.072096564 0.01845423 0.19449209 -0.055364113 -0.09101119 0.021086037 -0.14997685 0.06808797
0.21603574 -0.04663148 -0.022769857 -0.09916742 0.009426114 -0.07797668 0.011458531 0.11145807
0.024951719

transformer_encoder.layers.1.self_attn.out_proj.bias f4 [5]
00000000: 02b2 9bbb bdca 42bd 40ea 703a ca9f a73c
00000010: b789 973b
-0.004751445 -0.047556628 0.00091901794 0.020461936 0.004624571
